model.pth (torch, 757927 bytes, 151 tensors)

encoder.0.weight f4 [16, 1, 3, 3, 3]
00000000: ef88 1dbd 2ca0 6c3c f09b 92bc 4961 4bbe
00000010: b8fa 9b3d 25fc 5c3d 3ef9 74be 2922 afba
00000020: 7622 4a3e 2844 33be cc8b 0e3c b8ff a73d
00000030: eb0f 5dbe c78d 9a3d 7304 ef3c d851 a1bd
00000040: a9fc b43c b56f 2bb9 8f34 71be 1444 163e
00000050: 3c45 6f3d ee5d 0fbe 6148 343e 98b2 c6bd
00000060: 8b8b 05be 2ebf dc3d 79ed 5e3c 2e99 afbc
00000070: e2d6 8dbc 031f 2c3d 96d8 80be cdf8 433e
00000080: 37ce cc3c 9e00 70bd d344 8bbc 8ec4 dd3d
00000090: 1412 83be 7929 0a3e 52aa 313d 67c1 8cbe
000000a0: 6333 3d3d 7dcb 563d 151e 48bd 8eda 80bc
000000b0: 5328 07bd 9d2e f2bc 3eda 18bd 8e0e 013e
000000c0: 33ae f1bd 6e0c 353e dc31 9f3d 6d04 46be
000000d0: 74c1 b63d 75ea 1f3e 52d3 febd aaaa ee3d
000000e0: 5245 0a3e be41 82bd 4068 783e 25af 733e
000000f0: 9dd8 4dbd 7b7e c2bc cc35 9e3e 63b7 e0bd
00000100: 20b1 21be 38f5 a43d 75b4 9c3b bcae 6f3c
00000110: 438d 3cbd 8571 38bd 8d56 a63d 2bd7 27be
00000120: b807 90bd fe60 293e d2f3 b6bd 14e9 2ebe
00000130: cfb2 3e3e e3de bebd 3221 2cbc 540d 103d
00000140: eae8 7dbd 5f1d d33d 2a09 4abe 1782 133d
00000150: b3f6 e83d 0045 23bc 6ca4 46bc ddba 543e
00000160: dbfe f23d 1699 3cbe 9cac 203e 95d2 79be
00000170: 4e4a 0b3d 6f60 d13d 3a0a 48bc 1b59 2ebd
00000180: 5090 6d3e 0de9 073e 0203 1bbe 7c40 3a3e
00000190: 1929 28be e269 c7bd ee8f 4e3d 8047 3bbc
000001a0: 2259 41bd c3aa 573d f943 cbbb b32b 493d
000001b0: f171 8d3e ebce 2fbe 80b8 17be 16f5 313e
000001c0: 5347 6f3b 92ae 94be b344 cf3d d256 e7bd
000001d0: 1606 703c a7bb 0c3e b472 efbd aff8 a6bd
000001e0: 96d8 303d 275d bd3c 72ef 2cbe 7ed6 8b3d
000001f0: 3f19 94bd cc12 943d f079 de3d f5fb 02bd
00000200: 0cef e8bc 131a 853e 4715 2cbe 3621 28bd
00000210: c40d 2e3d ae99 a7bc f105 c53d 7581 6cbe
00000220: 0fa5 f93d 8e12 e93d 9302 81bd e51a 6abd
00000230: 9fb0 b93d 824e 41bd 963d b33d 10c4 213c
00000240: f407 42be 1287 043e b1c6 793d 4b24 61be
00000250: 5511 153e b4c4 dc3d c8e1 a5bd 0194 c43d
00000260: 62d7 da3d a544 7fbe e67c ad3d 2765 153e
00000270: 7c39 49be 9daa 0a3e dfed 843c e784 db3d
00000280: f7b3 06be 2a1d 7d3d 8478 ff3c d397 933d
00000290: b196 4dbd 82c7 813e 05a0 cbbd 0d2f a7bd
000002a0: 5d1a 8e3e f2dc 86bd ef1e 28be 88c5 363e
000002b0: 7890 c03d 7699 54be c17d 343e 30f3 a2bc
000002c0: ba1b 6abd f277 843e 539e 25be 4f21 4cbd
000002d0: 766f 9b3e 145e 23be 2781 e4bd 690e 733e
000002e0: 1d4b 80bd c37e 02be 9c1e 3d3e 6823 75bd
000002f0: 04b9 eebd c014 71be effb 913d 98f9 143e
00000300: 699e 85be 5d35 493e ab07 67bb b3d9 29be
00000310: 32f5 d8bb 4f48 1d3e d7ab 973d ed89 4a3d
00000320: 7330 8ebd bd61 8dbe 6a2c 803d 861e 673e
00000330: 3e3d 83be b830 5f3d 3ce9 4a3e 5777 abbc
00000340: 4b40 0e3d e8f4 e0bb c0c4 5fbe 7ea2 b73d
00000350: 3cf7 383e 229f d1bd df84 393e 6b8f 7abd
00000360: cdb4 9e3d 0eab 1c3c 2dac 623d bcb7 5c3e
00000370: 3825 d7bd 2406 e9bd 80df 3f3e 4b1d 82ba
00000380: 6d96 62be 4dda 403e 4aff 61bc 28be 923d
00000390: 2a0b 8f3e b08c 16be 0a0c 96bd 65ce 7b3e
000003a0: a054 3cbe 7171 10be 6895 193e 69c9 6ebe
000003b0: 4d64 803d 3a1d 2f3e 44fe f2bd 094e 2abe
000003c0: 74f0 893d 1f55 a6bd d270 26bd ceb5 9abc
000003d0: cda6 18bc 194e 28be b057 c63d dc06 20bc
000003e0: 3b0b 24be 24cb 41bc 30c3 c93d 4f3f 06be
000003f0: 927b 043e 0aa8 2cbe 7ec5 103e ad52 5d3e
-0.03846067 0.014442485 -0.017896622 -0.1986133 0.0761618 0.0539514 -0.23923203 -0.0013361621
0.19739708 -0.17506468 0.008700322 0.08203071 -0.21588103 0.07546573 0.029176926 -0.078769386
0.022093134 -0.00016349445 -0.23555206 0.14674407 0.058415636 -0.14000675 0.17605735 -0.09702033
-0.13041513 0.10778652 0.013606423 -0.021435346 -0.017314378 0.042021763 -0.25165242 0.19137879
0.025000675 -0.05859434 -0.017000591 0.108285055 -0.2559973 0.13492383 0.04337532 -0.27491304
0.046191584 0.052440155 -0.048856813 -0.015729215 -0.03299744 -0.029563243 -0.037317507 0.12603208
-0.11800804 0.17680523 0.07773182 -0.19337626 0.08923617 0.15616782 -0.1244265 0.11653645
0.13503006 -0.063601956 0.24258518 0.23797281 -0.050255407 -0.023741951 0.3090042 -0.10972478
-0.15790224 0.08054584 0.0047822543 0.014629062 -0.046033155 -0.045030136 0.08121977 -0.16390674
-0.07032722 0.16540906 -0.08933224 -0.170811 0.18622898 -0.09319856 -0.010505961 0.03516896
-0.061989702 0.103083365 -0.19730058 0.036012735 0.11375179 -0.009965181 -0.012124162 0.20774408
0.11865016 -0.18417773 0.15690845 -0.24396737 0.03400641 0.102234714 -0.012209469 -0.042565446
0.23199582 0.13272496 -0.15137866 0.18188661 -0.16421928 -0.097369924 0.05043023 -0.011430621
-0.047204144 0.052653085 -0.0062031713 0.04911394 0.27625993 -0.17168777 -0.14816475 0.17378649
0.0036511018 -0.29039437 0.10120525 -0.112958565 0.0146498885 0.13743459 -0.116918 -0.081529014
0.043175302 0.023115708 -0.16888216 0.068280205 -0.07231378 0.07230148 0.108631015 -0.031978566
-0.028434299 0.25996456 -0.16804992 -0.041047297 0.042493597 -0.020459022 0.09620274 -0.23096259
0.121896856 0.11380492 -0.06299319 -0.057154555 0.09066891 -0.04719401 0.08751981 0.009873405
-0.18948346 0.1294215 0.060980503 -0.21986501 0.14557393 0.10779706 -0.08099705 0.09598542
0.10685612 -0.2492853 0.08471088 0.14589368 -0.19650835 0.13541646 0.016226707 0.107187085
-0.13154589 0.06179539 0.031185396 0.072066925 -0.05019254 0.25347525 -0.09942631 -0.08163271
0.2775449 -0.06585111 -0.1641805 0.1784879 0.09402555 -0.20761666 0.17626096 -0.019891351
-0.05715535 0.2587276 -0.16173677 -0.049836453 0.30358475 -0.15953857 -0.11157446 0.23735966
-0.06264327 -0.12743668 0.18468708 -0.05984822 -0.11656383 -0.23543072 0.07128131 0.14548337
-0.2609742 0.19649263 -0.0035252373 -0.16586952 -0.0066210264 0.15359615 0.07405823 0.049447943
-0.06942835 -0.2761363 0.06258471 0.22570238 -0.25632662 0.05448982 0.19815534 -0.02093093
0.034729283 -0.0068651326 -0.21852398 0.0896654 0.18063062 -0.1023543 0.18117093 -0.06117193
0.07749329 0.009562267 0.05533998 0.21554464 -0.10505146 -0.11378124 0.18737602 -0.0009926943
-0.22127695 0.18833275 -0.013793776 0.07165176 0.27938205 -0.14702106 -0.07326515 0.24590452
-0.18391657 -0.14105774 0.149984 -0.2331902 0.06269131 0.17100993 -0.118649036 -0.1663133
0.06735316 -0.08121704 -0.040634938 -0.01888552 -0.009317112 -0.16436042 0.09684694 -0.00976726
-0.16019909 -0.011828218 0.09851682 -0.13110088 0.12937763 -0.16860977 0.14137837 0.2161357

encoder.0.bias f4 [16]
00000000: a768 4bbd c16c 6abd a6d8 293f a067 3abe
00000010: 3659 c03e 41ee c4be 8551 263e 03e6 96bf
00000020: 437f d03e f414 e1bd 9ea1 6abf 11b5 3f3e
00000030: 32a7 083f 3b09 c03f 1723 a8bf 1dc9 183f
-0.04966035 -0.057232622 0.66346204 -0.18203592 0.37568063 -0.38463023 0.16242035 -1.1788944
0.40722093 -0.109903246 -0.9165286 0.18721415 0.5338012 1.5002817 -1.3135709 0.59681875

encoder.2.weight f4 [16]
00000000: 441e 253f f917 613e 3858 563e aaeb fc3e
00000010: 87d7 b43e 4e19 2c3f 54bc 573f 2ea3 5a3f
00000020: 6874 2d3f 4516 9e3e 1b7f 5b3f 4d2f 323e
00000030: 21c7 693e c107 3f3f 5890 313f 1a71 2a3f
0.64499307 0.21981801 0.2093209 0.49398547 0.35320684 0.6722611 0.8427174 0.8540524
0.67755747 0.30876365 0.8574082 0.17400856 0.22829868 0.74621207 0.69360876 0.6657883

encoder.2.bias f4 [16]
00000000: 6a43 b7be 056d 61bd fc8c 6e39 537e a43b
00000010: c889 1fbe 0c7c 85bd 67be a3be bf4a 2ebe
00000020: 96ef 133e 5f0b 8cbd eee3 e7be 0234 05be
00000030: 37f5 263d d47c 9a3e 5d96 f63d adce 84be
-0.3579362 -0.05503561 0.0002274997 0.005019942 -0.15579903 -0.06517801 -0.31981203 -0.17020701
0.14446864 -0.06838106 -0.45291084 -0.1300812 0.0407612 0.3017336 0.12040398 -0.2593893

encoder.2.running_mean f4 [16]
00000000: 34f3 8fbe 616c cbbd 5468 2d3f cda6 8f3b
00000010: 1190 ac3e 0ec4 93be 6f46 ba3e 079e 50bf
00000020: b67f db3e 84d3 513d 6594 3bbf 3ad0 903e
00000030: 02b2 fe3e 3c2d 683f 054c 7fbf 5cff 1c3f
-0.28115237 -0.09932781 0.6773732 0.004383898 0.33703664 -0.28860515 0.36381862 -0.8149113
0.42870873 0.051227108 -0.7327331 0.28283864 0.49745184 0.9069402 -0.9972537 0.6132715

encoder.2.running_var f4 [16]
00000000: dd39 0b3c e5a4 b73b 3fe0 033b 121a c83b
00000010: a607 ba3b cfe9 a93b aafd 503c 813d 393b
00000020: 8072 1c3c 0946 d23b 75a2 ba3b 18ec 2f3b
00000030: 87ed 933b 25b4 8b3a da19 9e39 cefb 0e3c
0.008497682 0.0056043738 0.0020122675 0.0061066234 0.0056771813 0.005185343 0.012755791 0.002826542
0.009548783 0.0064170402 0.005695636 0.0026843604 0.0045143995 0.0010658546 0.0003015537 0.008727027

encoder.3.conv1.weight f4 [16, 16, 3, 3, 3]
00000000: 1f42 f13c f7ed 143c 945a d53c 5f3e 2a3d
00000010: 74ca 1e3c 0060 5a3d e683 1b3d 434b 02bd
00000020: cf4d 85bc 7674 b43b 47be 3ebd f8f0 ecbc
00000030: df2f 843d 2158 263d 6317 e53c 4937 0e3d
00000040: dc32 863b 00de 223d ff77 dc3c a00c 4abd
00000050: 49b1 40bd 0e5b b53c 76f1 94bb f849 de3b
00000060: d4dd b2bc b305 04bd 5e0a bfbd c690 d339
00000070: 14c4 70bd 2751 4b3c bb52 73bd a9ac 82bd
00000080: ee7e 38bd 37d9 b6bc c574 7bbd b5a9 4bbe
00000090: cf3c 94bd 6ff3 fcbb 743a 3fbd fa61 053e
000000a0: c6a2 393a 56bd d03d c504 f13d 3c1f 823d
000000b0: a25f 523e bdf0 903d af03 06bc fe70 ef3c
000000c0: f512 e6bc e439 45bd 181a 9dbd 32ad 4b3d
000000d0: 874f 973c 0a8c c53c cd4b 12bd 467f ea3c
000000e0: 8713 073c 93cf 623d 874d a83a 3c72 5ebd
000000f0: efd1 1c3d 73a5 c5bb f982 643b e5df 003d
00000100: adc3 81bc 27a2 4e3c 0683 c6bc 377d ca3c
00000110: b6c3 03bc e4ba 0c3b 5352 243d d56e 3fbd
00000120: 3f4e a53c 45cc c6bc 21c3 3c3d b55b 093d
00000130: af8d 9bbb 30aa b7bd f653 5ebc 1a93 0bbc
00000140: d695 babd b85a 0e3d 8e9d 853c a50a a13c
00000150: d069 d23c b431 48bb ab2d 10bd 3362 7cbd
00000160: 27f0 963c 2922 89bb f4d4 2e3d 7b42 b23d
00000170: 1197 aa3d ca3f 32bd c91c a43b 9bda dbbd
00000180: 7325 9e3d 10a6 013d a078 833d 5f3a 37bd
00000190: 8d2f 0a3d 993c 083c 6c16 653a 30b3 a63c
000001a0: 2fea 4ebd 5bab 243d 622c df3c f509 f83c
000001b0: 41b6 7e3c fc2a d63d d183 ae3d a0f8 d2bd
000001c0: 2187 d13c 2378 6cbe 0cbe bcbc c7ae a93d
000001d0: 31df 57bc 042f 1b3d a752 bb3d 04b1 8cbd
000001e0: 191f 2cbd 9ff7 a43c 4bd4 afbd 4e2d 1abd
000001f0: b1db 903d 39c6 e43d ffdb 213d 2ab8 d13d
00000200: 33c7 3dbd ea17 e83b 884f 4f3d c665 07bc
00000210: 825d cebd cbaf 803c efae 7d3c 293a ac3d
00000220: a0e3 b1bc 886a c13a 1db7 243d 3902 42bd
00000230: c8dc 5dbc f0e6 8e3d 759b af39 0d36 953d
00000240: 6d9f 633d f8ef c1bb 96ba 483d a559 17bd
00000250: 7654 96bd 91f3 23be da11 8a3d 8853 18bd
00000260: 21fd 82bc 4d8b 063d 2ca1 8ebd 6367 093d
00000270: e4e2 933d 4ece 20bd 5832 873d 8807 643d
00000280: 643e e7bd 53a7 173c e287 86bd 0906 463c
00000290: e589 99bd cef4 02be 9183 36bc 66d8 c8bd
000002a0: ed6d ecbd 937c b93d c872 debd a437 b93c
000002b0: 338d e13d e6ec 933c a7f6 fbbd 1298 823d
000002c0: 8c66 2cbe a188 0bbe 4864 3ebd 495c 68be
000002d0: e0d3 54bd a377 9c3c 44e9 35bd 83f0 4bbd
000002e0: 2d69 c73d f0d7 08bd bc29 e4bb 2ed3 163d
000002f0: 5ea1 b3bd 96c0 d83c 75dd 22bd b266 b6bc
00000300: 997b af3c 6e91 ffbc c872 60bd 6619 963d
00000310: bb9d 05bd c469 91bd 37fd 4f3d ac07 67bd
00000320: 7643 d33c 3e17 443e 4b01 e8bc 4d67 5b3d
00000330: f733 d53c 5245 f9bc 39cf cdbd 385e e93d
00000340: 6157 cbbd 3d1f 203b d390 2abc 4201 1abd
00000350: 740c bdbd a22a 943d 8995 6dbd 5e22 07be
00000360: b9f4 663d c6bb 333c b907 223d c7ef 2dbd
00000370: 0070 053d 7ba6 a8bb 4af6 063c 9721 c93c
00000380: ba4a aabd 25b5 693c d868 293c eae3 0ebd
00000390: 6970 94bd 88de b2bc c2d7 08bd aed0 9dbd
000003a0: 4629 c239 a92b 11be f292 b83c 3c74 083b
000003b0: ec07 1b3c d068 7dbd e5dc 843c 2cf3 b73c
000003c0: eb98 cabb fb8d fd3c 234d 8cbc 84e1 8abc
000003d0: f851 d5bb 121a dbbc 7b54 7e3c 23a6 683d
000003e0: 4ad3 4c3c ecb2 0bbd 6f78 07bd d2e0 6cbb
000003f0: e96a b6bc ef6e d93b 7bfd c73c de13 11bd
0.029450474 0.009089938 0.026044168 0.041563388 0.009691823 0.05331421 0.037967585 -0.031810056
-0.016272454 0.0055070473 -0.04656818 -0.028923497 0.06454443 0.04061139 0.027965253 0.034720693
0.0040954184 0.039762497 0.026912687 -0.049328446 -0.047044072 0.022138145 -0.004545386 0.00678372
-0.021834292 -0.032231998 -0.09328149 0.0004035292 -0.058780745 0.012409485 -0.05940507 -0.063805886
-0.045042925 -0.022320373 -0.061390657 -0.19888957 -0.07238161 -0.0077194492 -0.046686605 0.13025656
0.0007081445 0.10192363 0.11768488 0.06353614 0.20544294 0.07077167 -0.008179589 0.029228684
-0.028085211 -0.048150912 -0.076709926 0.04972572 0.018470539 0.024114627 -0.03571682 0.028625142
0.008244402 0.05537374 0.0012840488 -0.05430816 0.038286146 -0.006031686 0.0034868105 0.031463522
-0.015840376 0.012611902 -0.024232399 0.02471791 -0.008042267 0.00214737 0.040117573 -0.046736557
0.020178912 -0.024267325 0.046084527 0.033534724 -0.0047471146 -0.089680076 -0.013569823 -0.008518958
-0.0911061 0.034754485 0.01631048 0.019658396 0.025685221 -0.0030547203 -0.035199802 -0.061617088
0.01842506 -0.0041849804 0.042683557 0.087040864 0.08329595 -0.043517865 0.0050083143 -0.10735055
0.077219866 0.03165251 0.06419492 -0.0447334 0.033736754 0.008315229 0.0008738998 0.020349115
-0.050516304 0.04020248 0.027242843 0.030278185 0.015546382 0.10457417 0.08521236 -0.10301328
0.02557713 -0.23092704 -0.02303984 0.08285289 -0.013175772 0.037886634 0.09146624 -0.068697006
-0.042021845 0.020137606 -0.085854135 -0.037640862 0.07073153 0.111706205 0.039516445 0.10240205
-0.04633255 0.007082929 0.050612956 -0.008264011 -0.10076429 0.015708825 0.015483602 0.08409531
-0.021714985 0.001475648 0.040213693 -0.0473654 -0.013541408 0.069776416 0.00033494426 0.072857
0.055571962 -0.005918499 0.049006067 -0.036950726 -0.073403284 -0.16010882 0.06741686 -0.037189037
-0.015989842 0.03284769 -0.06964335 0.033545863 0.0722101 -0.039259247 0.06601399 0.055671245
-0.11291197 0.009256202 -0.06568886 0.0120864 -0.074970044 -0.12788698 -0.011139766 -0.098069
-0.11544404 0.09056964 -0.108617365 0.02260954 0.1101326 0.018057298 -0.123029046 0.06376661
-0.16835994 -0.13626339 -0.046482354 -0.22691454 -0.051959872 0.019100016 -0.044411913 -0.049789917
0.097368576 -0.03340906 -0.006962983 0.03682249 -0.08771013 0.02645902 -0.03976198 -0.022265766
0.02142124 -0.031197276 -0.054796964 0.07329063 -0.032621127 -0.07100251 0.050778594 -0.0564038
0.025789004 0.19149491 -0.028320929 0.053565312 0.026025755 -0.030428562 -0.1004929 0.11394924
-0.099287756 0.0024432682 -0.010410505 -0.037598856 -0.09230891 0.07234694 -0.058003936 -0.13196704
0.05638573 0.010970062 0.039558146 -0.042464998 0.032577515 -0.005146799 0.008237431 0.02455215
-0.08315034 0.01426438 0.010339938 -0.034885325 -0.07248003 -0.021834627 -0.033408888 -0.07705818
0.00037033315 -0.14176811 0.022531006 0.0020821234 0.009462338 -0.061867535 0.016218612 0.02245482
-0.00618278 0.03095149 -0.017126625 -0.016953237 -0.0065100156 -0.02674583 0.015523071 0.056799065
0.012501547 -0.03410618 -0.03307384 -0.0036144746 -0.022267776 0.006635539 0.024412861 -0.035419337

encoder.3.conv1.bias f4 [16]
00000000: 404a 203d a8c1 1cbc bdcf 39bd ee10 193d
00000010: 3215 933c bf48 f73b f9d1 a73a 5c8e cfbc
00000020: 7039 a1ba 75db 09bd 8e34 2d3d 0aa2 00bc
00000030: b1be c9bc ff0e 48bc 299b 30bd 458d 803c
0.03913331 -0.009567656 -0.04536413 0.03736966 0.017954443 0.007546514 0.0012803666 -0.025336437
-0.0012300443 -0.033656556 0.04228645 -0.007851133 -0.024627062 -0.012210607 -0.043116722 0.015692363

encoder.3.bn1.weight f4 [16]
00000000: 4b24 843f b1dd 2d3f db5d f53e 82c1 573f
00000010: 3fce 313f ae49 093f a480 703f 5a0a 0a3f
00000020: 73db 4a3f 49b5 533f 22b2 823f c05c 053f
00000030: 375a 5b3f 0db7 0c3f ab5c 603f d307 8d3f
1.0323576 0.679164 0.4792317 0.84279644 0.6945533 0.5362805 0.9394629 0.53922045
0.792411 0.82698494 1.0210612 0.5209465 0.8568453 0.54966813 0.876414 1.1018013

encoder.3.bn1.bias f4 [16]
00000000: 5daf 5c3e 44e0 2f3d 553d 053d 06e3 e73c
00000010: 156f 29bc d142 963d 68cf f4be 26e2 0ebe
00000020: 3fad 2fbe 67a0 823e 3f78 b5bd 9965 6fbe
00000030: 349d 833e 7962 2cbe 2bbd 5b3e 009e d5bd
0.21551271 0.042938486 0.032529194 0.028306495 -0.010341425 0.07336963 -0.47814488 -0.13953456
-0.17155932 0.25513002 -0.08860826 -0.233786 0.25705874 -0.1683444 0.2145888 -0.10430527

encoder.3.bn1.running_mean f4 [16]
00000000: 037d c33e c209 7c3f dc35 80c0 104a 603d
00000010: 9c8b 6a3f f981 333f cfe1 28bf 0393 f2bd
00000020: c021 7cbe 3493 2abf 9618 33c0 378a 0ac0
00000030: 8492 383f f415 09bd a1ac d53e 2f1f 7bbf
0.38181314 0.9845239 -4.0065746 0.05475813 0.91619277 0.701202 -0.65969557 -0.118444465
-0.2462225 -0.66630864 -2.7983756 -2.164686 0.72098565 -0.0334682 0.41733268 -0.9809446

encoder.3.bn1.running_var f4 [16]
00000000: 3784 4241 1c67 2842 660b 1f42 2dc9 ae42
00000010: 6f6f 2c42 9fef 9542 2490 8840 e199 0642
00000020: 9bd1 2442 f186 0f42 7f92 fd3f d964 7e42
00000030: 8daf df40 d0e3 7642 aa5c 4f42 b1b1 ba40
12.157279 42.100693 39.76113 87.39292 43.10882 74.96801 4.2675953 33.650272
41.204693 35.88178 1.9810332 63.598484 6.9901795 61.722473 51.840492 5.834191

encoder.3.self_attention.query.weight f4 [16, 16, 1, 1, 1]
00000000: de3a 2dbe 775f 88be 3298 cdbc 3dec 0cbe
00000010: 6a2f 153d b9d8 9f3d a3e2 ac3b c002 033e
00000020: 26f0 b53a 3331 1f3e 52d9 393d 4a6c 073e
00000030: eb9f 11bb 5c9e 973d 2a87 453d c86e 6dbd
00000040: cb10 c03c 8fe8 073d bbd2 22be d4a3 ca3c
00000050: 4d33 10be 89f3 833d ec96 583c 86d1 b23d
00000060: 5a8b 843e 5dd4 8e3b 57a2 ccbd 11a3 87bc
00000070: 1510 d4bb 89e2 95bc b051 143e bdfe 2cbd
00000080: fce8 44bd 702b 0fbd 2790 06be 9935 66bd
00000090: 8d4d 91be 1f50 db3d d832 02bd 4c05 583e
000000a0: 830f 563e 502d 44be e0ea 30bd 4354 8bbe
000000b0: 41e8 a3bd aae6 a9bc 5ae2 5dbe 32b4 2abd
000000c0: 28ef e53d 950e 893c e83d d53d a924 4abd
000000d0: 3b1b 16be ea2f 35be 36fb 4e3d 36cf 86be
000000e0: 3ae6 57bb 40c0 9d3d 0b96 7f3d 103a 7d3e
000000f0: b734 c9bd 6663 683d a52e 493d ad0c 003d
00000100: bbd7 58be 268a 833e c6be 703e d664 583d
00000110: 5eeb 51bc 545b 05be c157 2abe b0a7 4a3e
00000120: 90d2 82bc 81f4 723d b9c9 283e 6818 193e
00000130: 142a b13c 569b 83bd 19cc 4b3e 6b64 f83d
00000140: 251d dbbd 8ec4 23be a66c 4c3e ddb4 1bbd
00000150: e10f 03bd 4057 5ebe cadf 93bd 72c2 ecbd
00000160: aeed 38be 4e79 c9bd 1542 013e 0832 14be
00000170: b42b b33d 8789 bd3c 25c6 c53c 4cbd de3d
00000180: 3d6f 753d f487 2f3e eef7 903d 31b9 6d3e
00000190: c977 53be 4120 71be 8c85 283e dfc2 01be
000001a0: 423a e73d f428 31be af6f 6dbe d8cb 323e
000001b0: 738f b3bb 404a 54bd 340c 613e c4a0 aebd
000001c0: 0ddf bfbd 56f6 1c3e 3d63 dabd 6da8 1d3d
000001d0: 69fa 4dbe 5e7b 95bb c228 b33c ee65 c1bd
000001e0: 4f7e 843e c79b 0dbe 1d2b 03bc 119c 423d
000001f0: 20a3 843e 4b18 293d 8ab6 423d 6742 683e
00000200: 2eb2 10be 8525 8bbd 9481 cf3d 428e 25bd
00000210: ffdb ad3d 6b72 c9bd 81e0 afbd aac7 25be
00000220: f99c 0abe e9a4 3bbd adca 833c beb1 8c3c
00000230: 40d8 d9bc 9cac e0bd a3eb 383e a757 db3d
00000240: 58a0 18be 2d9d 99bd 9e68 acbe c347 733d
00000250: 626a 033e 0d3b 07bd bbfa 0a3e 88de d8bc
00000260: 33f8 9dbc 49df a93d 643a c43d 76da e73d
00000270: 6984 fc3d eff1 34bd 9dcd 343e 5c5b e23d
00000280: 9781 403d 7b4b e53d 92d1 12be 40a6 943d
00000290: 5492 a6bd c123 2ebb 2952 4d3d 8cf5 d63d
000002a0: 77cb 53bb 6f73 a43d 9149 473d f2dd 87bd
000002b0: 482e 5f3e 4012 853d 1d5d e6bc 7971 75bd
000002c0: 9502 b63d 4db7 40bd fcd5 26bd 7fda f8bd
000002d0: 7ddd 2bbe b8d2 afbd 9f3b 933b 8f30 be3d
000002e0: 2880 d3bd d70c 1d3e 0c0a c93c 752c e93d
000002f0: 1cff 073e 1b38 1739 9355 c5bc 4b17 4bbd
00000300: 8b41 163d da4b bfbd e3d9 4d3b 3b08 a8bc
00000310: 96c0 02be 2e22 e73d 2bb7 9ebd c17e 1f3e
00000320: c8d3 e4bd 0485 45be 3dec a3bc a703 c7b8
00000330: c823 3d3e 31c7 75bd 00b8 143d 9f1d 693d
00000340: f76d dd3d 4592 86bd 9359 3d3e 827c 313e
00000350: 19fb 2c3e f8cc 22bd 8b82 e3bc 0bcd 17be
00000360: bd5c 6fbd 1518 0cbe 5f1a 6ebd 5cc1 13bd
00000370: a369 58be 8da4 a13d 08c5 5a3d 6add 21be
00000380: 9463 5ebd 2615 07be ea02 c93d 1659 3abd
00000390: 50b2 21be 26cc c33d f795 fbbd 29bf d73d
000003a0: 6814 00bd 98bd 473e 9d83 ec3c 572d 553d
000003b0: 29dc 6e3c 319b 703e bfa1 09bc a9ee ecbd
000003c0: afd9 c93d 2013 e03c 7bb3 b63d c24a 563d
000003d0: 9e42 d5bd c6e5 64bd b318 b63d abea eabd
000003e0: 60e5 2bbe 0ecf aebc 869c 633d 7618 883d
000003f0: e9c1 4fbd fee6 b8bd 6222 e5bd 0513 2c3e
-0.16916987 -0.26635334 -0.025096986 -0.13761993 0.03642217 0.078050084 0.0052760406 0.12794018
0.0013880774 0.15546112 0.04537327 0.13224903 -0.0022220563 0.074032515 0.048224606 -0.057966977
0.023445508 0.03318077 -0.159007 0.024736322 -0.1408207 0.06442935 0.013219576 0.0873137
0.25887567 0.004358812 -0.09991901 -0.016557248 -0.0064716437 -0.018296497 0.14484286 -0.042235125
-0.048073754 -0.034953535 -0.13140927 -0.05620346 -0.2837948 0.10708641 -0.03178677 0.2109577
0.20904355 -0.1915791 -0.043192744 -0.27212724 -0.08003283 -0.020739872 -0.21668378 -0.041675754
0.11227256 0.016730586 0.10412198 -0.049351368 -0.14658825 -0.17694059 0.050532542 -0.26329964
-0.0032943622 0.077026844 0.06239895 0.2472918 -0.09824508 0.05673542 0.04911675 0.03126209
-0.21176045 0.25691336 0.23510274 0.05283054 -0.012812464 -0.1302312 -0.16635038 0.1979053
-0.015969545 0.05931521 0.16483201 0.14950716 0.02162651 -0.06426112 0.19902076 0.12128528
-0.10698918 -0.15992948 0.19963321 -0.03801428 -0.031997565 -0.2171297 -0.07220419 -0.11560525
-0.18059418 -0.0983759 0.12622865 -0.1447221 0.0874857 0.023136867 0.024142334 0.10875949
0.05992054 0.17141706 0.07078539 0.23215176 -0.20651163 -0.2354746 0.16457194 -0.12671994
0.11290409 -0.17300779 -0.23187135 0.17460573 -0.005479747 -0.051828623 0.21977311 -0.08526757
-0.093687154 0.15328345 -0.106634595 0.0384907 -0.20115055 -0.0045618257 0.02187002 -0.0944327
0.25877616 -0.13828956 -0.0080058845 0.047512118 0.25905704 0.041282933 0.047537364 0.2268158
-0.1413047 -0.06794266 0.10132137 -0.04041887 0.084892265 -0.098362766 -0.085877426 -0.16189447
-0.13536443 -0.045811567 0.016087854 0.017174598 -0.026592374 -0.109704226 0.18058638 0.10710078
-0.14904916 -0.07500682 -0.33673567 0.05939461 0.1283355 -0.0330153 0.13572209 -0.026473299
-0.01928339 0.082945414 0.0958145 0.11320965 0.12329943 -0.04417604 0.1765656 0.11052582
0.046998587 0.111960374 -0.14337757 0.07258272 -0.081333786 -0.0026571604 0.050127182 0.10496053
-0.003231732 0.0802983 0.048654143 -0.066341296 0.21794999 0.064976215 -0.028120572 -0.05992267
0.08887211 -0.04704981 -0.040731415 -0.1215105 -0.1678371 -0.08585113 0.0044931914 0.092866056
-0.10327178 0.1533693 0.024540924 0.11385433 0.1328091 0.00014421383 -0.024088657 -0.04958276
0.0366836 -0.093406394 0.0031410388 -0.020511737 -0.12768778 0.11285816 -0.0774978 0.15575697
-0.111732066 -0.19289023 -0.020010108 -9.48974e-05 0.1847068 -0.060004417 0.03630829 0.056913015
0.1081199 -0.065708674 0.18491201 0.17332652 0.16892661 -0.039746255 -0.027772209 -0.14824311
-0.05843805 -0.13681062 -0.05813062 -0.036073074 -0.21134047 0.07892714 0.05341056 -0.15807119
-0.054294184 -0.13191661 0.09815009 -0.045495115 -0.15790677 0.095604226 -0.12284463 0.10534508
-0.03126946 0.19505918 0.028871352 0.052045193 0.014578857 0.23496701 -0.00840038 -0.11568958
0.09855973 0.02735287 0.08920952 0.05231739 -0.10413097 -0.05588319 0.0889143 -0.114705406
-0.16786718 -0.021338966 0.055569194 0.066452906 -0.050722037 -0.09028433 -0.111881986 0.1680413

encoder.3.self_attention.query.bias f4 [16]
00000000: 01a8 70bc 3171 99bd 281f c53d b63e e0bd
00000010: bd32 16be 9370 86bd 8121 123d be9e d9bb
00000020: 3895 503c 0510 c33d cb40 9c3c bf4e 6cbe
00000030: 419f 0d3e 86c8 f9bd 8b50 413e 0143 3cbe
-0.014688493 -0.07492293 0.09625083 -0.10949461 -0.14667793 -0.065644406 0.035676483 -0.006641238
0.012730889 0.0952454 0.019073864 -0.23076914 0.13830282 -0.1219645 0.18878381 -0.18384935

encoder.3.self_attention.key.weight f4 [16, 16, 1, 1, 1]
00000000: 3baf 49bd e53c b5bd 2eff dcbd 1a06 6d3d
00000010: cbe6 923d c03c 71bd b0c2 493d 14e6 b13b
00000020: 6cf1 923e c1ee 4bbe d319 a23c e502 43be
00000030: 44bb 31bb 7c70 9fbe 6505 c53d 3b85 863e
00000040: 48f1 053e fdbc 1fbe e0df 993e 2f68 3ebe
00000050: ebbf 533d 634f a23d 5a65 d3bd efb0 3fbe
00000060: 5613 f2bd 72f5 593d cad1 15be d645 d1bd
00000070: 2413 9bbd 3d07 3d3d 9f57 27bd e10a d4bd
00000080: 30e5 25be 874d 4abe 8b61 81b9 8041 b23d
00000090: c750 cfbc 6c3b e7bd 4685 723c 14df 3e3d
000000a0: e850 90bd 27ba 7bbd ddb8 e1bd e77f c3bc
000000b0: d4e2 ce3d 8bdd 173e 05dd 413d 692c da3c
000000c0: a168 d33d 57d4 863d 9fc7 3a3e ae98 bebd
000000d0: b1b0 ad3d d47f 08be 92c4 e0bd 0e5c 7bbe
000000e0: 6e57 29be ec74 013e 1dfc 743e 62a6 a23d
000000f0: 58a1 3e3c 9671 46be 4d47 503e 1bae 323e
00000100: 1253 a4bc 70bb 253c 02ad 23be 1b98 973d
00000110: 305d 88bd 5163 c73d 3cba 28bd bdb2 3fbd
00000120: e9dd 563e bc50 c1bd 0a04 f53b 1795 dbbd
00000130: 6b86 0d3e f727 be3c 6442 383c 8609 853d
00000140: cf26 a9bd 3f88 93bd 4682 813d 2c05 243e
00000150: ce84 f9bd a8c3 74bc b828 843d 3c87 f8bd
00000160: 6061 44bd 6408 973d 3ca9 dfbd e47b 91bb
00000170: ad19 6b3d 3636 d53d 4431 a63d b011 41bd
00000180: 5e82 d9bd 0f72 d33d d4b0 773d 605b 8ebd
00000190: 6c45 72be ac8b cf3d 4841 20bd 381c eb3d
000001a0: dee6 0cbe 8566 fc3d aa9f a53d f418 ac3d
000001b0: 91bc f6bb 9357 cc3d e0d9 03be 6500 f73d
000001c0: 988c 3e3e caf9 0cbe d0cf 1e3d c8b5 ef3a
000001d0: 9b2d 1f3e c075 44be 2707 2bbd e3af f43b
000001e0: b562 1c3d 89f0 04bc e40a 1e3e 449a f0bd
000001f0: 876e 1abe 938a db3b 006b d7bd 256c a53a
00000200: 3497 27be 568f 92bd a35c 703e 111c 50bd
00000210: ba69 dcbc 0e0d fbbd 65bf 2c3d 1c31 633e
00000220: 0624 3fbe a79e 303e 7cb3 fe3d 0490 12bd
00000230: 0e06 eabd 49c4 5abd 42eb 7c3c e637 553d
00000240: 731f e13d ba07 d23d 0767 1abe d0b5 513d
00000250: efd9 80be a4c2 653e a73c 12be b2c2 383c
00000260: 01d2 063e dfb6 fdbd 79b2 b2bd e68b 73be
00000270: 17e2 03bd fd7f 1fbd 5c03 bdbc 3185 e5bd
00000280: 31af c7bd 77fc 0d3e 8b22 e23c 6760 05be
00000290: 38ce 2abe 8fa7 f23c c7ed 82bd 84e2 26be
000002a0: 8e16 343e e040 45be 2ac0 8dbd 56e5 59bd
000002b0: f6aa ee3d b344 71bd 2307 503c 6fb3 f33d
000002c0: a476 8f3e 3b0f a83d 1411 0cbd 45bd af3d
000002d0: 0028 b83d a710 7e3d 2a99 b9bd eda7 b6bd
000002e0: a359 1e3e 142f 0ebe c535 44bd 2499 fdbd
000002f0: d296 8dbd 492d 243d f66a 343e 2fd3 823d
00000300: 7c40 163e dc31 703d dded c13c 3719 813e
00000310: f204 163e 1e10 833d db70 d8bd 51ff 4abd
00000320: e28d a23c 36ba 18bd bf03 563d 8660 2fbd
00000330: 1039 2b3d 2135 4e3d 10db cabc 854b 83bd
00000340: 98b1 8cbd 1f12 863d 7abf 383e 42d0 debd
00000350: 854a 6b3c 8b58 76bd 8841 1e3d 1d18 043e
00000360: 9ba4 053e 55f7 733d cdfa d1bd 2ff8 aebb
00000370: 3f0e b73d a203 54be a6d7 e13c ef8a d33d
00000380: 13c8 003e 88c3 153e 9150 e6bc 5828 09bd
00000390: 7fee b43d e648 413e 2fb9 0c3d 09d9 503d
000003a0: c73c f43c 5835 21be 8807 cebd 382b c6bb
000003b0: 6bc7 90bc c448 fb3d c0a2 cfbd 9395 a23d
000003c0: c18b e23d 38d2 6b3d 2124 cabc 5c29 b03d
000003d0: e85d ef3d a244 b5bd 5342 0abe 10ee e0bd
000003e0: cb66 04bd 10bf c43c c168 fd3d 52e5 91bc
000003f0: 521a 31be 23c7 1f3e 1f0c 553e 732c 863d
-0.04923938 -0.08849505 -0.10790859 0.057867147 0.071729265 -0.058895826 0.049257934 0.005429039
0.28699815 -0.19915296 0.019787705 -0.19044073 -0.0027119676 -0.31140506 0.096201696 0.26273522
0.13080323 -0.15599437 0.30053616 -0.1859443 0.0516967 0.07925298 -0.10322066 -0.18719839
-0.11820094 0.05321259 -0.1463081 -0.10218398 -0.0757201 0.04614948 -0.040855046 -0.103536375
-0.1620071 -0.19756137 -0.00024677473 0.087038994 -0.025307072 -0.11290631 0.014802283 0.046599463
-0.07046682 -0.061456826 -0.11021588 -0.0238647 0.10101858 0.14830606 0.04732992 0.026632505
0.10322691 0.06583469 0.18240212 -0.09306465 0.08480967 -0.13330013 -0.10974993 -0.24546835
-0.16537258 0.12642258 0.23924299 0.07941891 0.011635147 -0.19379267 0.20339699 0.17449228
-0.020059142 0.010115489 -0.15983966 0.07402059 -0.06658399 0.0973574 -0.041193232 -0.046801317
0.2098309 -0.09439227 0.007477288 -0.10721796 0.13820808 0.023212416 0.0112462975 0.06495957
-0.08259355 -0.07203721 0.06323676 0.16017598 -0.121835336 -0.014939226 0.06453079 -0.12135169
-0.047944427 0.07374647 -0.10920951 -0.0044398177 0.057397533 0.104107305 0.081148654 -0.04713601
-0.10620569 0.10324489 0.06047137 -0.06951022 -0.23659295 0.10134062 -0.039124757 0.11479992
-0.13759944 0.123242415 0.08087094 0.08403197 -0.007529803 0.09977641 -0.12876081 0.12060622
0.1860832 -0.13767162 0.038772404 0.0018288428 0.15544741 -0.19185543 -0.041754868 0.0074672564
0.03818007 -0.008113989 0.15433842 -0.11748174 -0.15081225 0.006699869 -0.105184555 0.001262073
-0.16366273 -0.071562454 0.23472838 -0.050808016 -0.026905883 -0.12258349 0.042174716 0.22186702
-0.18666086 0.17248021 0.12436578 -0.035781875 -0.11426936 -0.05340985 0.015436949 0.052055262
0.109923266 0.1025538 -0.15078364 0.05119878 -0.2516627 0.22437531 -0.1428095 0.011276888
0.13166048 -0.123883955 -0.08725447 -0.23783836 -0.032198038 -0.03894042 -0.023072891 -0.11207045
-0.09750212 0.13865839 0.027604362 -0.13025056 -0.16680229 0.029620914 -0.06393009 -0.16297346
0.17586729 -0.19263029 -0.06921418 -0.053197227 0.11653702 -0.058903407 0.012697014 0.118994586
0.28020203 0.0820603 -0.034195974 0.08581022 0.089920044 0.0620276 -0.09062417 -0.08918748
0.15463881 -0.13885146 -0.04790284 -0.12382725 -0.06913532 0.04008225 0.17618927 0.06387936
0.14673036 0.0586413 0.023672992 0.2521455 0.14650324 0.063995585 -0.105684005 -0.049559895
0.019843046 -0.03728696 0.052249666 -0.04281666 0.041802466 0.050343636 -0.02476266 -0.064108886
-0.06869811 0.06546425 0.18041793 -0.10879566 0.014361029 -0.060143035 0.038636714 0.12899823
0.13051073 0.059562046 -0.102529146 -0.0053396444 0.08938264 -0.20704511 0.02756865 0.10329234
0.12576322 0.1462537 -0.028114589 -0.03348574 0.08834552 0.18875465 0.034356292 0.05098823
0.029814137 -0.15743005 -0.1006003 -0.0060476325 -0.017673215 0.12269738 -0.10138464 0.07938685
0.11061812 0.057573527 -0.02467543 0.08601639 0.11687833 -0.08850981 -0.13501863 -0.10982907
-0.032324594 0.024016887 0.12373496 -0.017809544 -0.17295197 0.15603308 0.20805405 0.06551447

encoder.3.self_attention.key.bias f4 [16]
00000000: 7119 b1bd ed29 8bbd a503 953e cdf3 9bbd
00000010: ec5c 49bd ef4d 8bbd 0544 17be 8f75 6cba
00000020: c6bf f7bd 15cd a0bb a2b0 babd 41ae 473d
00000030: 1183 af3d 0d09 7abb a555 ba3c d76d 1dbd
-0.08647431 -0.06795106 0.29104343 -0.07614861 -0.049160883 -0.06801974 -0.14772041 -0.0009020203
-0.12097125 -0.00490726 -0.09115721 0.048750166 0.08569921 -0.0038152367 0.022745917 -0.03843483

encoder.3.self_attention.value.weight f4 [16, 16, 1, 1, 1]
00000000: fa81 b7bd 0e0d a8bd 6b7f af3d a067 f2bc
00000010: 00ad 923d 42b8 a4bd 1fd9 4cbe 3f4c 69bd
00000020: dc9b 43bd 936c 073d 5219 93bc b513 46be
00000030: 3f6b 1abe 4001 0fbe a8bd 54be f696 86bd
00000040: efc8 233d 56f2 9a3e 8ba7 c2bd ae64 aebd
00000050: aff3 0f3e dd8e 42be fa4b ffbd 4afe d8bd
00000060: 5c49 103e 5c00 eb3d e4bd 9fbc 3e63 3d3e
00000070: 7b6d 96be fe66 413d d010 9c3d 5b6b 0d3e
00000080: 1091 483e 8e24 293e 1004 82bd 0d8d b4bd
00000090: f184 2abe 429b 9e3e 574c 87bd 4d80 afbd
000000a0: f311 29be 81ba 51bd 4c78 bfbd 26b4 e93d
000000b0: 3c59 b13e d9b9 ac3d 127c 183e 7b15 d23c
000000c0: 08f3 41bd 19a9 9abd 805c a8bd 3fd3 003e
000000d0: cdc4 93be 5e71 00be 0442 0f3e 84ab 303e
000000e0: 0073 fc3d 0211 48be 0432 5d3e 710d 223e
000000f0: 5107 6d3e e594 2c3d 8b6b 8ebd 0f7f f2bd
00000100: 1442 aa3d 4fc1 803e 5d16 193e 2e2d 99bd
00000110: cfe9 9ebd f0ff 03bd f7a2 5e3e 2508 93bc
00000120: 2401 9c3e 09cd b1be 1741 f1bd 39ed bd3e
00000130: bb5f 533e 61f7 b73e b410 39be 6720 2dbe
00000140: fdfc 5f3c 35de e4bd 52d9 893e 0d1c 993d
00000150: 2e57 66be 6e5c 46be e59a 60bc 3d16 4fbc
00000160: 3a2e 2fbe a993 48be 7fcd 1abd 43dd 2cbc
00000170: e75d 2e3e d290 e0bd 6e0a c5bd 7ba7 b4bd
00000180: c232 ccbe 9e90 d03d 4587 9cbc 306d c9bd
00000190: c2d6 0c3e a46f 9fbe 4eaa 0d3d 06a6 c53c
000001a0: 1aa8 a83e b9d6 64be 8a5a 843d bb2c 683e
000001b0: af66 80be c53c 003e af0c c4be c30f b33d
000001c0: 9998 243e 72b4 993e 5837 26be 21b1 43bc
000001d0: c41a 033e 0db1 bd3e 44eb 92bd 1dd2 40bd
000001e0: 99eb a23e d85c a3bc 70a5 d73c 667f acbd
000001f0: dc3b 7dbd 8d50 27be e2a1 dabe 18b3 fb3c
00000200: ad06 ba3d 4dab 6a3e a4c3 783c 0145 ddbd
00000210: 23f7 b83c 45a5 a73d 8f84 783d c294 943e
00000220: 3e6f 0f3e 4160 77be 68ca 183e 588f 6e3e
00000230: fd90 27bd 38af 7cbc cf62 933e e7f2 8abe
00000240: 4a0e c6be 3da6 e6bd d566 2dbe 4b96 f93d
00000250: bcb6 2ebe fbe3 42be c709 e83e 89ca 90bd
00000260: 1b04 5f3e 94ac 8a3c 88cc 70bb f59f 293e
00000270: a098 78be d84e ff3d 8579 27be a7f7 c23d
00000280: fc2f 28be 2352 82be 5c05 393e 5f2c 3c3d
00000290: 37c3 9e3e 6ac0 dabc fbc6 babd 84d1 3dbe
000002a0: 04a4 323e 8551 99bc 5d1a babd d606 143e
000002b0: 036b 0bbe 561f e33c ff0e 04be 3ea6 543e
000002c0: b529 b63c 4a60 093d 5dc8 58be 101c 833e
000002d0: 8ec3 51be b851 9e3d ef05 6a3e cb78 923e
000002e0: c6d1 78be e67c 99be 5729 233e a15f 6c3d
000002f0: f125 04be 29f8 543e 3d33 10bd 327b 61be
00000300: b2b4 2b3e a691 a93d 3008 fcbd 6778 b43d
00000310: 46fd a8be 6c86 0f3d 4ccb e23d 9dc7 8f3a
00000320: 232d b9bd b35b f4bd cb82 033e fd99 edbd
00000330: d0d4 4c3e 742f 053e a60f 3dbd ff3f 03be
00000340: 1eb3 9d3d 8f67 e33d d5da 6f3e 779c d33d
00000350: dfb1 87bc 9231 373c 9be3 173c 1aa4 3abc
00000360: 0fca b03e 44dc 6fbe d72e f23d d8cc 04be
00000370: 8197 703e 796c 933d 3318 11be 06fb 94be
00000380: c8e1 d1be 5998 02bd 8e1a 2a3e 0b63 19be
00000390: fad5 423e 897e 30be 1c3d 3abe 9d0e 433e
000003a0: 2ca6 3b3e 88ac 2c3e 3100 fabd ce43 de3b
000003b0: 915f babe 5950 4fbe aac4 22ba abc1 a73e
000003c0: 7643 c33d dbc8 693e d055 24bd 9260 dc3d
000003d0: 0ae6 503c 4ec6 c83d e06b f9be 7bbc 73be
000003e0: bd1e 41be 2c3d e33e 8df9 983c d006 cebe
000003f0: fa66 1bbd becd b9be 4598 433e fe65 683d
-0.08960338 -0.08205615 0.08569225 -0.029590428 0.071619034 -0.08042957 -0.200047 -0.05695748
-0.04775606 0.03306253 -0.01795641 -0.19343455 -0.15079974 -0.1396532 -0.20775473 -0.06571762
0.039986547 0.30263013 -0.095046125 -0.08515297 0.14057802 -0.1899981 -0.12465663 -0.10595377
0.14090484 0.11474678 -0.019499727 0.18494889 -0.29380402 0.04721736 0.07620394 0.13810484
0.19586587 0.16517851 -0.06348431 -0.08815966 -0.16652276 0.30977827 -0.066063575 -0.08569393
-0.16510753 -0.051203255 -0.09349117 0.11411314 0.34638393 0.08433885 0.14891079 0.025645008
-0.047350913 -0.07551784 -0.08220768 0.12580584 -0.28861085 -0.12543246 0.13990027 0.17252928
0.12326622 -0.19537738 0.2160111 0.1582544 0.23147322 0.042134184 -0.06954106 -0.11840641
0.08313385 0.25147483 0.14949937 -0.074793205 -0.07759439 -0.032226503 0.21741854 -0.01794822
0.3046962 -0.34726742 -0.11779993 0.3709505 0.20641987 0.35930923 -0.18072778 -0.16906892
0.013671157 -0.11175195 0.26923615 0.074760534 -0.22494194 -0.19371197 -0.013708805 -0.012639579
-0.17107478 -0.19587578 -0.037793633 -0.0105508 0.17028008 -0.10965122 -0.0962113 -0.08821007
-0.39882475 0.101838335 -0.01910747 -0.09835279 0.13753799 -0.31139863 0.034586243 0.024127018
0.3294075 -0.22347535 0.064625815 0.22673313 -0.2507834 0.12523182 -0.38290927 0.08743241
0.16073836 0.3002048 -0.1623205 -0.011944086 0.12803179 0.37049142 -0.071737796 -0.04707538
0.31820372 -0.019941732 0.026324004 -0.08422737 -0.061824664 -0.16339321 -0.42701632 0.030725047
0.090833046 0.22916909 0.015183363 -0.10804177 0.022578781 0.081858195 0.060673293 0.29019743
0.1400728 -0.24157812 0.14920962 0.23296869 -0.040909756 -0.015422635 0.28786322 -0.27138445
-0.38682777 -0.11262176 -0.16933759 0.12186869 -0.17061895 -0.1903228 0.4531996 -0.070698805
0.2177891 0.016927995 -0.0036743004 0.16564925 -0.24276972 0.1246621 -0.1635495 0.09519892
-0.16424555 -0.2545329 0.1806845 0.045940753 0.31008312 -0.026703078 -0.09119984 -0.18536955
0.1744538 -0.01871563 -0.0908706 0.14455733 -0.1361504 0.027724903 -0.12896346 0.20766541
0.022236684 0.033539094 -0.21170183 0.25607347 -0.20484754 0.0773043 0.22853826 0.28607783
-0.24298772 -0.29978102 0.15933739 0.057708386 -0.12905098 0.2079779 -0.035205115 -0.22019652
0.16768149 0.08279733 -0.12306249 0.088120274 -0.33005732 0.035040304 0.11073932 0.0010969524
-0.09041812 -0.11931553 0.12842862 -0.116016366 0.20003057 0.13006383 -0.0461575 -0.12817381
0.077001795 0.111037366 0.23423322 0.10332578 -0.016564308 0.011181252 0.009270574 -0.011391664
0.34529158 -0.23423868 0.1182534 -0.12968767 0.23495294 0.07198424 -0.14169388 -0.29097766
-0.4099257 -0.03188357 0.16611692 -0.14979188 0.19026938 -0.1723577 -0.18187374 0.19048543
0.18325108 0.1686269 -0.12207068 0.0067829853 -0.36401036 -0.20245494 -0.0006209115 0.32764944
0.095343515 0.22830527 -0.0401209 0.10760607 0.012750158 0.098034486 -0.48715115 -0.23802368
-0.18859382 0.44382608 0.018673683 -0.40239573 -0.037940003 -0.3628978 0.19101055 0.056737892

encoder.3.self_attention.value.bias f4 [16]
00000000: 600c a33c 5f3b 19be e58d 263e 1318 863d
00000010: f2db d2be 6778 ca3d 768a c2be 8f84 8c3c
00000020: 95c6 99be a7b0 fdbe 3fc0 bb3c e720 8bbe
00000030: dc3a 99bd 79a8 f7bd 05ee 6dbd 06e7 0b3f
0.019903362 -0.14964055 0.16265066 0.065475605 -0.4118343 0.09886246 -0.37996262 0.017153053
-0.3003432 -0.49548838 0.022918819 -0.2717354 -0.0748193 -0.120926805 -0.05808832 0.5464939

encoder.3.self_attention.fc_out.weight f4 [16, 16, 1, 1, 1]
00000000: d4f4 f1bd 32d1 2fbe 0e13 7bbd 636d 8d3e
00000010: 8685 aa3d fea1 0cbd 4c15 fc3c 5e8e 2abe
00000020: ecde 9cbd 3b55 69be 6bb0 103f 37a2 40be
00000030: 8d5b 6fbe 0cf0 9a3e a186 1cbc 5d79 803e
00000040: 6ec5 763d 7d54 4dbe a953 dabb e92b 81be
00000050: b97c 11be 0e42 113e 54f1 723c 66b3 613e
00000060: f9dd 043e b0d3 363e a860 3abe d7d0 02be
00000070: 05e5 f23c f17a 2a3e b6de a5be 756e 85be
00000080: fbf3 5bbd 5096 ab3d e857 31be 8f97 1ebd
00000090: ae1a 203e 3305 183d 979e 343e d1eb ed3c
000000a0: 7550 54be 88bd a8be 09d9 ef3e 54b5 fdbd
000000b0: 49c5 45be 39de ff3d ef17 293d 94b6 333e
000000c0: 9418 813e 6a37 0dbe 2f32 08be 7a68 7fbd
000000d0: 80f6 6ebd 7b4c 8cbe edd9 213e d7a5 d9bd
000000e0: 6deb 703e 3db5 2b3e dee3 c93d a0d6 4cbe
000000f0: 5042 a43a 3530 e83d e223 2abb 5912 813c
00000100: 544b bf3e eb44 1fbc d9ea 093e 0d94 e53d
00000110: d94f c8bd 5c63 c33d f50f 97bd 4101 213e
00000120: 7227 563d dc63 473e 74df 4ebc e733 0a3e
00000130: 8dbd 06be 018e 8a3d 4f06 a3bd 5cdb 16be
00000140: 2c53 aa3d 2258 eb3b 2df1 153e 07a3 953e
00000150: f9cd c13d 34b4 5ebd 1410 783c b951 5d3e
00000160: c028 14be ba9c 70be 8490 893e 6a95 513d
00000170: 431b 383d 7870 d83c ec33 383e c654 d73e
00000180: 3f80 85bd c032 663c a545 efbd 8078 823e
00000190: 06c5 b83d 1fc6 0e3d e47b 803e 3082 313d
000001a0: 515a 0dbe 2030 0d3e a2c7 383c 3c60 88be
000001b0: a8a7 d4bc de8c 673e 4712 263d b122 993e
000001c0: c9d4 c73c a1ed afbd a0a0 093d 55b4 9cbe
000001d0: 89e7 3ebe 5ddc cfbd 67dd 093d 67e0 db3d
000001e0: ce7a 1ebd 7bce ce3d d6af febc 6faf 27be
000001f0: fab8 9bbd a3f0 833b c8a1 c6bb c8ef 11bd
00000200: 1ca0 5f3b 05a6 e4bd 1ec2 39bc b0dc c03e
00000210: 14d7 9ebd c807 0ebe f640 993e 2419 25be
00000220: 7393 7cbe 1f9c 82be bab1 d03e 2f3c d2bd
00000230: 5d8c 363e f051 833e 15ac 9e3e 3f3d 883d
00000240: 769b e2be baff e3bd 20ea 39be 30ef 90bd
00000250: 3fad 6cbd e73a ffbd f219 1abe 0e63 4c3e
00000260: 8584 f5bc 015c 353e 72b0 6c3e 60d2 2ebe
00000270: 6e00 d03d 977e 613d 7fc9 813e 41e2 053e
00000280: 3396 53be 3500 093e ca7c efbd c41a 99be
00000290: a311 c8be 10b8 02be 6c7e 99be a425 45bd
000002a0: 2682 043e 606e 863e 4df7 6f3d ffb2 98bd
000002b0: dc3b f9bd 9ccf 8c3d c99f 9abe 05fd 403d
000002c0: a905 293d 8af4 34be 7e8e ff3d 1bb1 46be
000002d0: e3ae 123c 4b03 e33d 7542 8bbe 6d9f ea3d
000002e0: ad63 ce3e 6b08 213e 3f3e 5a3e 72d9 42bd
000002f0: e5d7 57be bb5b fcbd 741b 11be 4156 713d
00000300: ccb8 52bd af74 51be 03b9 583e e981 88bd
00000310: 0c61 8f3e da3e bcbd 472f 153e 5258 a73d
00000320: 627d f03d b737 b03e 4ff5 893e 4835 b5be
00000330: edc3 5a3e e945 a93c afd8 993d 6573 7a3e
00000340: 3a85 703e e544 f2bd f0e6 c93c 7c9b 3b3d
00000350: 0c73 12be e3cb 1fbc 63f9 bdbd 4f6b bcbc
00000360: ac96 973d 2af7 fa3d 1ac9 c8bd e6c8 43be
00000370: 878b 2a3e 1211 b1bd c129 e6bd 8989 80be
00000380: f6ce 00bd a6a0 f4bd 113f 64be caa4 603c
00000390: bee2 f2bd 89ec 5abd 9c5f 223e 7396 7bbd
000003a0: 49c2 3a3e ac5b 803d 3dd1 28be a93c 5c3e
000003b0: c279 e23d 03bd 00be ae75 ffbd d352 b2be
000003c0: 32bb a9be 966e 953d b868 49be 8540 6a3e
000003d0: ba7e a3bd 53d1 85be a1c2 663d 06cd e0bd
000003e0: ad00 603d 3426 94be e4c4 153d 16c6 d63d
000003f0: 4a48 4abd 00b4 aa3e a544 943e dbd4 2d3e
-0.118142754 -0.17169645 -0.06129747 0.27622518 0.08326249 -0.034334175 0.030771874 -0.16655871
-0.076597065 -0.22786419 0.5651919 -0.1881188 -0.23374768 0.30261266 -0.009553582 0.25092593
0.060246877 -0.20051761 -0.006662805 -0.25228813 -0.14207734 0.14185354 0.014828045 0.22041091
0.12975301 0.1785419 -0.18200934 -0.12774979 0.02965022 0.16648461 -0.32396477 -0.26060835
-0.053699475 0.08378279 -0.1731869 -0.038718756 0.15635177 0.037114333 0.17638622 0.02904311
-0.20733817 -0.329571 0.46845272 -0.12388101 -0.1931354 0.124935575 0.04128259 0.17550117
0.25214064 -0.1379067 -0.13300394 -0.062355496 -0.05834055 -0.274021 0.15805788 -0.106273346
0.23527308 0.16768356 0.09857915 -0.20003748 0.001253197 0.1133732 -0.002596133 0.01575582
0.37362158 -0.009721021 0.13468494 0.11209879 -0.09780855 0.09540436 -0.073760904 0.15723135
0.05228371 0.19471687 -0.012626518 0.13496362 -0.13158245 0.06765366 -0.07960188 -0.14732116
0.08316645 0.007182137 0.14642783 0.29225942 0.09463114 -0.054371074 0.015140552 0.21613206
-0.1446867 -0.23497286 0.2686807 0.051167883 0.044947874 0.026420817 0.17988557 0.42056865
-0.065186016 0.014050186 -0.116832055 0.2548256 0.09021954 0.03485691 0.2509452 0.043337047
-0.13803984 0.1378789 0.011278065 -0.2663592 -0.025958851 0.2261233 0.040544774 0.2990928
0.024393456 -0.08590246 0.03360045 -0.30606332 -0.18643011 -0.10149453 0.03365841 0.10736161
-0.038691334 0.10097977 -0.031089704 -0.16375516 -0.07603641 0.004026489 -0.0060617663 -0.035629064
0.0034122532 -0.11164478 -0.011337785 0.3766837 -0.07755867 -0.13870156 0.29932374 -0.16122872
-0.24665622 -0.25509736 0.40760595 -0.10265385 0.17826982 0.2564845 0.30990663 0.06652307
-0.44259232 -0.1113276 -0.18155718 -0.070768714 -0.057782408 -0.124624066 -0.1504896 0.19959661
-0.029970417 0.17710878 0.23114184 -0.17072439 0.10156332 0.055052366 0.25349042 0.1307459
-0.20662765 0.13378985 -0.116937235 -0.29903233 -0.39075956 -0.12765527 -0.29979265 -0.0481316
0.12940273 0.26256084 0.058585454 -0.07456016 -0.121696204 0.06875536 -0.3020003 0.0471163
0.041265164 -0.17671409 0.1247835 -0.19403498 0.008952829 0.110846125 -0.2719914 0.11456189
0.40310422 0.15725867 0.21312808 -0.047570653 -0.21078451 -0.12322184 -0.14170629 0.05892015
-0.051445767 -0.20454668 0.21164326 -0.066654034 0.28003728 -0.091916755 0.14568816 0.08171143
0.11742665 0.34417507 0.26944968 -0.35392213 0.21363802 0.020663219 0.07512032 0.24458082
0.23488322 -0.11829547 0.024646252 0.04580258 -0.143017 -0.0097532 -0.09276082 -0.023000387
0.07401785 0.12254174 -0.09803982 -0.19119605 0.16654788 -0.08645834 -0.11238433 -0.2510493
-0.031447373 -0.11944704 -0.22289683 0.013711164 -0.11859654 -0.053448234 0.15856785 -0.061422776
0.18238176 0.06267485 -0.16486068 0.21507515 0.1105838 -0.12572102 -0.124736175 -0.34828815
-0.3315063 0.07296483 -0.19668853 0.22876175 -0.079831555 -0.26136264 0.056337956 -0.10976605
0.054688144 -0.28935397 0.036564723 0.10487001 -0.049385346 0.33340454 0.28958622 0.16975729

encoder.3.self_attention.fc_out.bias f4 [16]
00000000: 5137 e2bb 8285 1639 0cd4 973c c0e0 32bd
00000010: b18f a13b 59c4 e13b 3ff3 7438 eac3 0d3b
00000020: 9b0d 5c3a 9e6f f7bb 772f f3bb 7340 783b
00000030: 1d14 c43c e182 623c ea92 e13a 628c 51bb
-0.006903567 0.0001435485 0.018533729 -0.04367137 0.0049304594 0.0068898615 5.8400674e-05 0.0021631666
0.00083943614 -0.0075511476 -0.0074214297 0.0037880212 0.023935372 0.013825149 0.0017209921 -0.0031974544

encoder.3.conv2.weight f4 [16, 16, 3, 3, 3]
00000000: 80f0 c9bc ec2d 13bc cf71 c63d 4228 c3bb
00000010: dddd 35bd e944 9b3d 2e54 203c 1766 9a3d
00000020: 5403 8c3d 5fe0 8c3d 967f dbbc 4e59 bb3d
00000030: 96cc 89bd ea02 0b3e 21a9 2c3e 6cb6 4e3d
00000040: af4a e23d 55a5 fa3d ae11 ec3d 7f31 9c3d
00000050: 92b7 0b3e 8f1d 7a3d d964 be3d a4a7 153e
00000060: 5768 033d 6d32 f33c 75f0 d63d 6b0e febc
00000070: 8f58 493d 9dd4 78bd 1887 603d 35b1 2abd
00000080: 9506 18bd c60e 0bbd 8c7f 093e f1d9 d43b
00000090: 2c9d 76bd 41e8 083b 59a3 11be 44fb dfbd
000000a0: 20c5 813a 5f52 66be c6c3 a5bd 5ff1 5e3d
000000b0: 0b15 2ebd ea3b 97bc 6cf3 803d 6ba8 dd3a
000000c0: 059f 363d 6140 273d 0e0b 46bc 0ae4 06bd
000000d0: e24c d33c 9418 503d 78d7 33bd 6983 fdbc
000000e0: 25e8 66bd 99ec 22bd c806 a9bd d4cc bfbc
000000f0: 258c cdbd eb64 a1bd fa2e 81bd 11e5 ac3c
00000100: 65ec 403c 03e4 14ba 04f3 97bc 8cc9 583e
00000110: 8055 9c3d 95d4 31be 4137 04bd 07a0 2cbe
00000120: 6201 b1bd 330d 95bd 572a b8bd 0412 3dbb
00000130: 3e41 2d3d 33b4 153d 8102 dabc 2084 95bd
00000140: 267f d0bd 1982 9f3d aae2 eb3b d2e5 a43d
00000150: 6199 3b3d be8e 35bb f85c 4d3b 8f8f a43d
00000160: 4615 5b3d fa6b 183e 52b0 163e 30d8 e43d
00000170: 4a16 e83d c96e 023e d7b2 2c3e df32 2b3e
00000180: 67a0 783d 780a e13d 5922 a63d 80ee 063e
00000190: 4b55 083e 0b7b f43d e4f9 113c bbc6 47b9
000001a0: b9b6 4b3c 74eb f23d d08c 0c3e 2abd ec3d
000001b0: 78c5 bdbd 8fc6 8dbd f5f9 19be a524 bdbc
000001c0: b86f 603d 59a6 e73a fb32 21bd 1510 18bd
000001d0: 9671 4fbd 60d4 18be 671b 3ebd 6005 f3bd
000001e0: 0932 3a3b e9fb 0c3d 70a7 3abd d627 2bbd
000001f0: 403b 6d3d c168 bfbd 9bb7 39bc ba06 703d
00000200: dda3 1ebd e85a 6cbd da88 d1bc 4648 eabd
00000210: 2dea 4bbd 5462 923c c01f 0ebd 8052 703c
00000220: ae36 b83d 4a07 103e 4ecd 2ebc cc18 343e
00000230: 6ff8 9e3c b5a0 33bc 86d4 e4bb 2a19 ae3c
00000240: 270f adbc 540a 763c d1cf 753d 37da d53d
00000250: 8d7c d33d be1c 303e f5d3 b43c 2136 d9bd
00000260: 7d1b 163d 09e0 7b3d e848 863d 216c 043d
00000270: 621f 5a3d d326 383d 3523 933d 8551 a5bc
00000280: 1290 0bbd b06c 96bc 1d46 c43c 21e1 96bc
00000290: 3cdf 75bc ba7c 4cbd 5f24 0abd 47d9 e4bc
000002a0: 1816 d4bc 7909 313c 40f8 8fbd 48f3 f4bc
000002b0: 7f99 463c e702 84bd b42a 4abd 7ab3 823d
000002c0: 1fd4 bb3d eb78 3dbe a57a ffbd ed88 f53d
000002d0: 0cdc 8dbd 1c3e 053c 0474 c2bd 1f05 01be
000002e0: c556 40bd 2e0f ff3b 8962 eabc 57fc 97bd
000002f0: 233e 733c b162 b7bc c2e8 a93c 5a53 1c3d
00000300: 5689 973c c2a9 303d 7c5a 303b c43d 93bc
00000310: 30be 073c a641 0f3c c9fd 323d 7abe b43c
00000320: 6a7d cd3c 044e c43c e1c2 12bd ca49 a9bd
00000330: 5530 a33d 3a2d 393d 425e 62bd 6df6 d03c
00000340: ab3b 4e3d 5be3 a73d 28ae c63c 12a8 8f3c
00000350: 79fb 8dbb e6be 353d f934 2cbd 5fcb cdbc
00000360: 937f a6bd 40aa 07be de90 de3c c28e bcbc
00000370: 82b9 853c edc8 05bd 5894 0ebd 472f 7fbd
00000380: c744 a23d 6d7b 17bd 3160 8dbd 6ada 543a
00000390: 7286 d1bd 4ccd 193e c73b 853d 0bd5 65bd
000003a0: b264 42bc 529d 04bd a2b0 21bb 3d6d 7c3d
000003b0: c6e0 8d3d 57f1 17bd df63 67bd 0c8f 0abd
000003c0: 87de 3abb 5fcd 3bbc ef6c 193d 0308 fe3c
000003d0: b439 91bd 6d3b 253e e610 b7bc ce89 16bd
000003e0: f73b 5f3d d34c 7a3d cc31 0c3c 285e a13d
000003f0: bd39 7abc 45eb a4bd 5393 e23c 333b 083b
-0.024650812 -0.008983117 0.09689676 -0.005955727 -0.04440104 0.07581503 0.009785695 0.07539003
0.06836572 0.06878733 -0.026794236 0.09147893 -0.06728475 0.1357533 0.16861393 0.05046694
0.11049401 0.12238566 0.1152681 0.07626628 0.13644245 0.061063346 0.09296579 0.14614731
0.032081928 0.02968713 0.10495082 -0.031012734 0.04915672 -0.06074964 0.054816335 -0.041672904
-0.037115652 -0.033949636 0.13427562 0.006495707 -0.060208485 0.0020890387 -0.14222468 -0.10936597
0.0009900667 -0.2249236 -0.080939814 0.05442941 -0.042500537 -0.018461186 0.06296429 0.0016911154
0.044585247 0.04083288 -0.012087597 -0.03293232 0.025793497 0.05080469 -0.04390666 -0.03094645
-0.056373734 -0.03977642 -0.082532465 -0.0234131 -0.10036496 -0.07880577 -0.06307788 0.021105321
0.011775111 -0.00056797283 -0.018548496 0.21170634 0.07633495 -0.1736625 -0.032279257 -0.1685792
-0.08642842 -0.07277908 -0.08992451 -0.002884985 0.042298548 0.036548804 -0.026612522 -0.073005915
-0.10180502 0.07788486 0.0071986513 0.08051647 0.04580057 -0.002770349 0.0031335931 0.08035194
0.053487085 0.1488494 0.14715698 0.11174047 0.11332376 0.12737574 0.16865097 0.16718625
0.060699847 0.10988325 0.0811202 0.13176918 0.13313787 0.11937531 0.008909676 -0.00019052152
0.012433701 0.11861315 0.1372559 0.11559518 -0.0926618 -0.06922638 -0.15036757 -0.023088763
0.054794043 0.0017673477 -0.03935526 -0.037124712 -0.050645433 -0.14924765 -0.04641285 -0.118662596
0.002841117 0.034419928 -0.045569837 -0.041786037 0.057917833 -0.09346152 -0.011335279 0.058600165
-0.03873049 -0.057703882 -0.025577951 -0.11439566 -0.049783874 0.017869152 -0.034698248 0.014668107
0.08994804 0.1406528 -0.010669066 0.17587584 0.019405572 -0.0109636085 -0.0069833426 0.021252234
-0.02112539 0.015017111 0.060012642 0.10442012 0.103264906 0.17198464 0.022073725 -0.106060274
0.03664731 0.061492953 0.065568745 0.032329682 0.053252585 0.0449589 0.071844496 -0.020180473
-0.034072943 -0.018362373 0.023959214 -0.018417897 -0.0150068365 -0.049923636 -0.033726092 -0.027935637
-0.025889441 0.010805481 -0.07029772 -0.029901162 0.012121557 -0.06445866 -0.04935713 0.06381889
0.09171318 -0.18503158 -0.124745645 0.11989007 -0.06926736 0.008132484 -0.094947845 -0.1259961
-0.04695775 0.007783792 -0.028611438 -0.07421177 0.0148463575 -0.022385927 0.02074087 0.038165428
0.018498104 0.043130644 0.0026909402 -0.017973788 0.00828509 0.008743679 0.04369906 0.022063483
0.025084216 0.023962982 -0.035830382 -0.08266027 0.07968203 0.045209147 -0.055265673 0.02550813
0.050349873 0.081976615 0.024252966 0.017536197 -0.0043329564 0.044371508 -0.042042706 -0.025121389
-0.081298016 -0.13248539 0.027168687 -0.023017291 0.016323809 -0.03266232 -0.03480944 -0.062300947
0.079232745 -0.036982942 -0.06903113 0.00081197044 -0.102307215 0.15019721 0.06505542 -0.056111377
-0.011864828 -0.032376595 -0.0024671932 0.061627615 0.06927638 -0.037095394 -0.05649173 -0.033827826
-0.0028513984 -0.0114625385 0.037457403 0.03100968 -0.07091084 0.1613595 -0.022346925 -0.036752515
0.054500546 0.06110842 0.008556794 0.07879287 -0.015272555 -0.080526866 0.02765814 0.0020787239

encoder.3.conv2.bias f4 [16]
00000000: 5e57 9e3b df5c 6e3c 7eb7 82bd 45e6 2bbd
00000010: 0732 3f3d 933c cdbc 1742 cf3b 0264 4abd
00000020: a7e1 cabc 0f0f 6dbd 76c0 9d3d ba77 15bd
00000030: b7d6 3b3d 11fd b0b8 b45f 89ba 1297 883c
0.0048321923 0.014548509 -0.063826546 -0.04196765 0.04667857 -0.025053298 0.006325017 -0.04941178
-0.024765803 -0.05787569 0.07702725 -0.036491133 0.045859065 -8.439471e-05 -0.0010480792 0.016673598

encoder.3.bn2.weight f4 [16]
00000000: 33f0 8a3f b2fb 9e3f c776 7b3f d6f9 643f
00000010: 32d8 823f 7f8d 513f 736f 673f 0413 7b3f
00000020: 13b5 d340 49e0 7d3f 17aa db3f bb3b 733f
00000030: b705 b43f 8548 9b3f 7728 b13f c2b5 1640
1.0854553 1.2420561 0.98228115 0.8944372 1.0222228 0.8185653 0.90404433 0.9807589
6.615854 0.99170357 1.7161282 0.95013016 1.4064244 1.2131506 1.3840474 2.3548436
